…
ed. In future, it will be treated as `np.float64 == np.dtype(float).type`.
  from ._conv import register_converters as _register_converters
Using TensorFlow backend.
Begining Time : Thu Aug 29 16:33:19 2019
-----------------New settings------------------
Walk iteration:
1 / 10
2 / 10
3 / 10
4 / 10
5 / 10
6 / 10
7 / 10
8 / 10
9 / 10
10 / 10
encoder_node:
Model: "model_1"
_________________________________________________________________
Layer (type)                 Output Shape              Param #   
=================================================================
input_1 (InputLayer)         (None, 3264)              0         
_________________________________________________________________
gaussian_noise_1 (GaussianNo (None, 3264)              0         
_________________________________________________________________
dense_1 (Dense)              (None, 128)               417920    
_________________________________________________________________
leaky_re_lu_1 (LeakyReLU)    (None, 128)               0         
_________________________________________________________________
gaussian_noise_2 (GaussianNo (None, 128)               0         
=================================================================
Total params: 417,920
Trainable params: 417,920
Non-trainable params: 0
_________________________________________________________________
encoder_context:
Model: "model_2"
_________________________________________________________________
Layer (type)                 Output Shape              Param #   
=================================================================
input_2 (InputLayer)         (None, 3264)              0         
_________________________________________________________________
gaussian_noise_3 (GaussianNo (None, 3264)              0         
_________________________________________________________________
dense_2 (Dense)              (None, 128)               417920    
_________________________________________________________________
leaky_re_lu_2 (LeakyReLU)    (None, 128)               0         
_________________________________________________________________
gaussian_noise_4 (GaussianNo (None, 128)               0         
=================================================================
Total params: 417,920
Trainable params: 417,920
Non-trainable params: 0
_________________________________________________________________
context_prediction:
Model: "context_aware"
__________________________________________________________________________________________________
Layer (type)                    Output Shape         Param #     Connected to                     
==================================================================================================
node_rep (InputLayer)           (None, 128)          0                                            
__________________________________________________________________________________________________
context_rep (InputLayer)        (None, 128)          0                                            
__________________________________________________________________________________________________
multiply_1 (Multiply)           (None, 128)          0           node_rep[0][0]                   
                                                                 context_rep[0][0]                
==================================================================================================
Total params: 0
Trainable params: 0
Non-trainable params: 0
__________________________________________________________________________________________________
context_model:
Model: "model_3"
__________________________________________________________________________________________________
Layer (type)                    Output Shape         Param #     Connected to                     
==================================================================================================
input_1 (InputLayer)            (None, 3264)         0                                            
__________________________________________________________________________________________________
input_2 (InputLayer)            (None, 3264)         0                                            
__________________________________________________________________________________________________
model_1 (Model)                 (None, 128)          417920      input_1[0][0]                    
__________________________________________________________________________________________________
model_2 (Model)                 (None, 128)          417920      input_2[0][0]                    
__________________________________________________________________________________________________
context_aware (Model)           (None, 128)          0           model_1[1][0]                    
                                                                 model_2[1][0]                    
==================================================================================================
Total params: 835,840
Trainable params: 835,840
Non-trainable params: 0
__________________________________________________________________________________________________
Discriminator:
Model: "model_4"
_________________________________________________________________
Layer (type)                 Output Shape              Param #   
=================================================================
input_3 (InputLayer)         (None, 128)               0         
_________________________________________________________________
dense_3 (Dense)              (None, 512)               66048     
_________________________________________________________________
leaky_re_lu_3 (LeakyReLU)    (None, 512)               0         
_________________________________________________________________
dense_4 (Dense)              (None, 512)               262656    
_________________________________________________________________
leaky_re_lu_4 (LeakyReLU)    (None, 512)               0         
_________________________________________________________________
dense_5 (Dense)              (None, 2)                 1026      
=================================================================
Total params: 329,730
Trainable params: 329,730
Non-trainable params: 0
_________________________________________________________________
GAN:
Model: "model_5"
_________________________________________________________________
Layer (type)                 Output Shape              Param #   
=================================================================
input_1 (InputLayer)         (None, 3264)              0         
_________________________________________________________________
model_1 (Model)              (None, 128)               417920    
_________________________________________________________________
model_4 (Model)              (None, 2)                 329730    
=================================================================
Total params: 747,650
Trainable params: 747,650
Non-trainable params: 0
_________________________________________________________________
Filling unigram table
Finish filling unigram table
2019-08-29 16:34:20.092163: I tensorflow/core/platform/cpu_feature_guard.cc:141] Your CPU supports instructions that this TensorFlow binary was not compiled to use: SSE4.1 SSE4.2 AVX AVX2 FMA
…
